…
in: ziffer_raw/8 -8_7_20211231-080400.jpg  -  out: ziffer_resize/8 -8_7_20211231-080400.jpg
in: ziffer_raw/1_digit4_2020-03-22_12-14-10.jpg  -  out: ziffer_resize/1_digit4_2020-03-22_12-14-10.jpg
in: ziffer_raw/1_ziffer5_2020-04-17_14-42-54.jpg  -  out: ziffer_resize/1_ziffer5_2020-04-17_14-42-54.jpg
in: ziffer_raw/2 -2_6_20211231-094402.jpg  -  out: ziffer_resize/2 -2_6_20211231-094402.jpg
dig-s0
a_output_actual/dig-s0
File Exists
Model: "sequential"
_________________________________________________________________
 Layer (type)                Output Shape              Param #   
=================================================================
 batch_normalization (BatchN  (None, 32, 20, 3)        12        
 ormalization)                                                   
                                                                 
 conv2d (Conv2D)             (None, 32, 20, 32)        896       
                                                                 
 max_pooling2d (MaxPooling2D  (None, 16, 10, 32)       0         
 )                                                               
                                                                 
 conv2d_1 (Conv2D)           (None, 16, 10, 64)        18496     
                                                                 
 max_pooling2d_1 (MaxPooling  (None, 8, 5, 64)         0         
 2D)                                                             
                                                                 
 conv2d_2 (Conv2D)           (None, 8, 5, 64)          36928     
                                                                 
 max_pooling2d_2 (MaxPooling  (None, 4, 2, 64)         0         
 2D)                                                             
                                                                 
 flatten (Flatten)           (None, 512)               0         
                                                                 
 dense (Dense)               (None, 512)               262656    
                                                                 
 dense_1 (Dense)             (None, 11)                5643      
                                                                 
=================================================================
Total params: 324,631
Trainable params: 324,625
Non-trainable params: 6
_________________________________________________________________
145
(145, 32, 20, 3)
(145, 11)
(116, 32, 20, 3)
(29, 32, 20, 3)
Epoch 1/100
 1/29 [>.............................] - ETA: 
…
===============] - ETA: 0s - loss: 4.4086e-07 - accuracy: 1.000029/29 [==============================] - 0s 10ms/step - loss: 4.4086e-07 - accuracy: 1.0000 - val_loss: 2.9611e-04 - val_accuracy: 1.0000
dig-s0
File Exists
dig-s1
a_output_actual/dig-s1
File Exists
Model: "sequential_1"
_________________________________________________________________
 Layer (type)                Output Shape              Param #   
=================================================================
 batch_normalization_1 (Batc  (None, 32, 20, 3)        12        
 hNormalization)                                                 
                                                                 
 conv2d_3 (Conv2D)           (None, 32, 20, 32)        896       
                                                                 
 max_pooling2d_3 (MaxPooling  (None, 16, 10, 32)       0         
 2D)                                                             
                                                                 
 conv2d_4 (Conv2D)           (None, 16, 10, 64)        18496     
                                                                 
 max_pooling2d_4 (MaxPooling  (None, 8, 5, 64)         0         
 2D)                                                             
                                                                 
 conv2d_5 (Conv2D)           (None, 8, 5, 64)          36928     
                                                                 
 max_pooling2d_5 (MaxPooling  (None, 4, 2, 64)         0         
 2D)                                                             
                                                                 
 flatten_1 (Flatten)         (None, 512)               0         
                                                                 
 dense_2 (Dense)             (None, 256)               131328    
                                                                 
 dense_3 (Dense)             (None, 11)                2827      
                                                                 
=================================================================
Total params: 190,487
Trainable params: 190,481
Non-trainable params: 6
_________________________________________________________________
145
(145, 32, 20, 3)
(145, 11)
(116, 32, 20, 3)
(29, 32, 20, 3)
Epoch 1/100
 1/29 [>.............................] - ETA: 
…
20220403	145	95	1.2471778063627426e-05	0.0
20220403	145	96	5.63144908483082e-07	0.0
20220403	145	97	1.0276661743802151e-09	0.0001436640159226954
20220403	145	98	6.165996158102871e-09	2.0964327518413484e-07
20220403	145	99	0.0	0.0
20220403	145	100	1.0173835818250154e-07	0.0006796283996663988
dig-s1
File Exists
dig-s2
a_output_actual/dig-s2
File Exists
Model: "sequential_2"
_________________________________________________________________
 Layer (type)                Output Shape              Param #   
=================================================================
 batch_normalization_2 (Batc  (None, 32, 20, 3)        12        
 hNormalization)                                                 
                                                                 
 conv2d_6 (Conv2D)           (None, 32, 20, 32)        896       
                                                                 
 max_pooling2d_6 (MaxPooling  (None, 16, 10, 32)       0         
 2D)                                                             
                                                                 
 conv2d_7 (Conv2D)           (None, 16, 10, 32)        9248      
                                                                 
 max_pooling2d_7 (MaxPooling  (None, 8, 5, 32)         0         
 2D)                                                             
                                                                 
 conv2d_8 (Conv2D)           (None, 8, 5, 32)          9248      
                                                                 
 max_pooling2d_8 (MaxPooling  (None, 4, 2, 32)         0         
 2D)                                                             
                                                                 
 flatten_2 (Flatten)         (None, 256)               0         
                                                                 
 dense_4 (Dense)             (None, 256)               65792     
                                                                 
 dense_5 (Dense)             (None, 11)                2827      
                                                                 
=================================================================
Total params: 88,023
Trainable params: 88,017
Non-trainable params: 6
_________________________________________________________________
145
(145, 32, 20, 3)
(145, 11)
(116, 32, 20, 3)
(29, 32, 20, 3)
Epoch 1/100
 1/29 [>.............................] - ETA: 11
…
20220403	145	95	8.436190910288133e-06	9.454516458617945e-08
20220403	145	96	1.4807401385041885e-06	0.0018176321173086762
20220403	145	97	2.0553323487604302e-09	7.365539204329252e-06
20220403	145	98	9.65385333984159e-06	0.0
20220403	145	99	1.0276661743802151e-09	8.221329395041721e-09
20220403	145	100	1.7881254166240979e-07	0.0
dig-s2
File Exists
dig-s3
a_output_actual/dig-s3
File Exists
Model: "sequential_3"
_________________________________________________________________
 Layer (type)                Output Shape              Param #   
=================================================================
 batch_normalization_3 (Batc  (None, 32, 20, 3)        12        
 hNormalization)                                                 
                                                                 
 conv2d_9 (Conv2D)           (None, 32, 20, 32)        896       
                                                                 
 max_pooling2d_9 (MaxPooling  (None, 16, 10, 32)       0         
 2D)                                                             
                                                                 
 conv2d_10 (Conv2D)          (None, 16, 10, 32)        9248      
                                                                 
 max_pooling2d_10 (MaxPoolin  (None, 8, 5, 32)         0         
 g2D)                                                            
                                                                 
 conv2d_11 (Conv2D)          (None, 8, 5, 32)          9248      
                                                                 
 max_pooling2d_11 (MaxPoolin  (None, 4, 2, 32)         0         
 g2D)                                                            
                                                                 
 flatten_3 (Flatten)         (None, 256)               0         
                                                                 
 dense_6 (Dense)             (None, 128)               32896     
                                                                 
 dense_7 (Dense)             (None, 11)                1419      
                                                                 
=================================================================
Total params: 53,719
Trainable params: 53,713
Non-trainable params: 6
_________________________________________________________________
145
(145, 32, 20, 3)
(145, 11)
(116, 32, 20, 3)
(29, 32, 20, 3)
Epoch 1/100
 1/29 [>.............................] - ETA: 11
…
