…
in: ziffer_raw/9_dig4_20220109-121223.jpg  -  out: ziffer_resize/9_dig4_20220109-121223.jpg
in: ziffer_raw/8 -8_7_20211231-080400.jpg  -  out: ziffer_resize/8 -8_7_20211231-080400.jpg
in: ziffer_raw/1_digit4_2020-03-22_12-14-10.jpg  -  out: ziffer_resize/1_digit4_2020-03-22_12-14-10.jpg
in: ziffer_raw/1_ziffer5_2020-04-17_14-42-54.jpg  -  out: ziffer_resize/1_ziffer5_2020-04-17_14-42-54.jpg
dig-s0
a_output_actual/dig-s0
File Exists
Model: "sequential"
_________________________________________________________________
 Layer (type)                Output Shape              Param #   
=================================================================
 batch_normalization (BatchN  (None, 32, 20, 3)        12        
 ormalization)                                                   
                                                                 
 conv2d (Conv2D)             (None, 32, 20, 32)        896       
                                                                 
 max_pooling2d (MaxPooling2D  (None, 16, 10, 32)       0         
 )                                                               
                                                                 
 conv2d_1 (Conv2D)           (None, 16, 10, 64)        18496     
                                                                 
 max_pooling2d_1 (MaxPooling  (None, 8, 5, 64)         0         
 2D)                                                             
                                                                 
 conv2d_2 (Conv2D)           (None, 8, 5, 64)          36928     
                                                                 
 max_pooling2d_2 (MaxPooling  (None, 4, 2, 64)         0         
 2D)                                                             
                                                                 
 flatten (Flatten)           (None, 512)               0         
                                                                 
 dense (Dense)               (None, 512)               262656    
                                                                 
 dense_1 (Dense)             (None, 11)                5643      
                                                                 
=================================================================
Total params: 324,631
Trainable params: 324,625
Non-trainable params: 6
_________________________________________________________________
146
(146, 32, 20, 3)
(146, 11)
(116, 32, 20, 3)
(30, 32, 20, 3)
Epoch 1/100
 1/29 [>.............................] - ETA: 
…
===============] - ETA: 0s - loss: 6.0014e-07 - accuracy: 1.000029/29 [==============================] - 0s 10ms/step - loss: 6.0014e-07 - accuracy: 1.0000 - val_loss: 3.1271e-06 - val_accuracy: 1.0000
dig-s0
File Exists
dig-s1
a_output_actual/dig-s1
File Exists
Model: "sequential_1"
_________________________________________________________________
 Layer (type)                Output Shape              Param #   
=================================================================
 batch_normalization_1 (Batc  (None, 32, 20, 3)        12        
 hNormalization)                                                 
                                                                 
 conv2d_3 (Conv2D)           (None, 32, 20, 32)        896       
                                                                 
 max_pooling2d_3 (MaxPooling  (None, 16, 10, 32)       0         
 2D)                                                             
                                                                 
 conv2d_4 (Conv2D)           (None, 16, 10, 64)        18496     
                                                                 
 max_pooling2d_4 (MaxPooling  (None, 8, 5, 64)         0         
 2D)                                                             
                                                                 
 conv2d_5 (Conv2D)           (None, 8, 5, 64)          36928     
                                                                 
 max_pooling2d_5 (MaxPooling  (None, 4, 2, 64)         0         
 2D)                                                             
                                                                 
 flatten_1 (Flatten)         (None, 512)               0         
                                                                 
 dense_2 (Dense)             (None, 256)               131328    
                                                                 
 dense_3 (Dense)             (None, 11)                2827      
                                                                 
=================================================================
Total params: 190,487
Trainable params: 190,481
Non-trainable params: 6
_________________________________________________________________
146
(146, 32, 20, 3)
(146, 11)
(116, 32, 20, 3)
(30, 32, 20, 3)
Epoch 1/100
 1/29 [>.............................] - ETA: 
…
20220403	146	95	2.3746788428979926e-06	0.00032749102683737874
20220403	146	96	1.8497983589327305e-08	9.178989444080798e-07
20220403	146	97	8.221300618060923e-08	0.0
20220403	146	98	2.3448324100172613e-06	1.986815618693072e-07
20220403	146	99	2.6719282786302756e-08	0.0
20220403	146	100	1.1407032474153311e-07	0.0
dig-s1
File Exists
dig-s2
a_output_actual/dig-s2
File Exists
Model: "sequential_2"
_________________________________________________________________
 Layer (type)                Output Shape              Param #   
=================================================================
 batch_normalization_2 (Batc  (None, 32, 20, 3)        12        
 hNormalization)                                                 
                                                                 
 conv2d_6 (Conv2D)           (None, 32, 20, 32)        896       
                                                                 
 max_pooling2d_6 (MaxPooling  (None, 16, 10, 32)       0         
 2D)                                                             
                                                                 
 conv2d_7 (Conv2D)           (None, 16, 10, 32)        9248      
                                                                 
 max_pooling2d_7 (MaxPooling  (None, 8, 5, 32)         0         
 2D)                                                             
                                                                 
 conv2d_8 (Conv2D)           (None, 8, 5, 32)          9248      
                                                                 
 max_pooling2d_8 (MaxPooling  (None, 4, 2, 32)         0         
 2D)                                                             
                                                                 
 flatten_2 (Flatten)         (None, 256)               0         
                                                                 
 dense_4 (Dense)             (None, 256)               65792     
                                                                 
 dense_5 (Dense)             (None, 11)                2827      
                                                                 
=================================================================
Total params: 88,023
Trainable params: 88,017
Non-trainable params: 6
_________________________________________________________________
146
(146, 32, 20, 3)
(146, 11)
(116, 32, 20, 3)
(30, 32, 20, 3)
Epoch 1/100
 1/29 [>.............................] - ETA: 11
…
20220403	146	96	3.23709230087843e-07	0.01208458747714758
20220403	146	97	7.029099151623086e-07	1.728491838548507e-06
20220403	146	98	1.1920882059257565e-07	0.03147309646010399
20220403	146	99	6.063221036356481e-08	0.18711018562316895
20220403	146	100	0.0	4.099916623090394e-05
dig-s2
File Exists
ziffer_resize/0_dig1_20220403-153604.jpg 0 7
dig-s3
a_output_actual/dig-s3
File Exists
Model: "sequential_3"
_________________________________________________________________
 Layer (type)                Output Shape              Param #   
=================================================================
 batch_normalization_3 (Batc  (None, 32, 20, 3)        12        
 hNormalization)                                                 
                                                                 
 conv2d_9 (Conv2D)           (None, 32, 20, 32)        896       
                                                                 
 max_pooling2d_9 (MaxPooling  (None, 16, 10, 32)       0         
 2D)                                                             
                                                                 
 conv2d_10 (Conv2D)          (None, 16, 10, 32)        9248      
                                                                 
 max_pooling2d_10 (MaxPoolin  (None, 8, 5, 32)         0         
 g2D)                                                            
                                                                 
 conv2d_11 (Conv2D)          (None, 8, 5, 32)          9248      
                                                                 
 max_pooling2d_11 (MaxPoolin  (None, 4, 2, 32)         0         
 g2D)                                                            
                                                                 
 flatten_3 (Flatten)         (None, 256)               0         
                                                                 
 dense_6 (Dense)             (None, 128)               32896     
                                                                 
 dense_7 (Dense)             (None, 11)                1419      
                                                                 
=================================================================
Total params: 53,719
Trainable params: 53,713
Non-trainable params: 6
_________________________________________________________________
146
(146, 32, 20, 3)
(146, 11)
(116, 32, 20, 3)
(30, 32, 20, 3)
Epoch 1/100
 1/29 [>.............................] - ETA: 10
…
