…
in: ziffer_raw/1_digit4_2020-03-22_12-14-10.jpg  -  out: ziffer_resize/1_digit4_2020-03-22_12-14-10.jpg
in: ziffer_raw/1_ziffer5_2020-04-17_14-42-54.jpg  -  out: ziffer_resize/1_ziffer5_2020-04-17_14-42-54.jpg
in: ziffer_raw/2 -2_6_20211231-094402.jpg  -  out: ziffer_resize/2 -2_6_20211231-094402.jpg
in: ziffer_raw/0 -0_5_20211231-080400.jpg  -  out: ziffer_resize/0 -0_5_20211231-080400.jpg
dig-s0
a_output_actual/dig-s0
File Exists
Model: "sequential"
_________________________________________________________________
 Layer (type)                Output Shape              Param #   
=================================================================
 batch_normalization (BatchN  (None, 32, 20, 3)        12        
 ormalization)                                                   
                                                                 
 conv2d (Conv2D)             (None, 32, 20, 32)        896       
                                                                 
 max_pooling2d (MaxPooling2D  (None, 16, 10, 32)       0         
 )                                                               
                                                                 
 conv2d_1 (Conv2D)           (None, 16, 10, 64)        18496     
                                                                 
 max_pooling2d_1 (MaxPooling  (None, 8, 5, 64)         0         
 2D)                                                             
                                                                 
 conv2d_2 (Conv2D)           (None, 8, 5, 64)          36928     
                                                                 
 max_pooling2d_2 (MaxPooling  (None, 4, 2, 64)         0         
 2D)                                                             
                                                                 
 flatten (Flatten)           (None, 512)               0         
                                                                 
 dense (Dense)               (None, 512)               262656    
                                                                 
 dense_1 (Dense)             (None, 11)                5643      
                                                                 
=================================================================
Total params: 324,631
Trainable params: 324,625
Non-trainable params: 6
_________________________________________________________________
143
(143, 32, 20, 3)
(143, 11)
(114, 32, 20, 3)
(29, 32, 20, 3)
Epoch 1/100
 1/29 [>.............................] - ETA: 
…
=======>........] - ETA: 0s - loss: 2.6682e-06 - accuracy: 1.000029/29 [==============================] - 0s 9ms/step - loss: 2.0128e-06 - accuracy: 1.0000 - val_loss: 4.7044e-04 - val_accuracy: 1.0000
dig-s0
File Exists
dig-s1
a_output_actual/dig-s1
File Exists
Model: "sequential_1"
_________________________________________________________________
 Layer (type)                Output Shape              Param #   
=================================================================
 batch_normalization_1 (Batc  (None, 32, 20, 3)        12        
 hNormalization)                                                 
                                                                 
 conv2d_3 (Conv2D)           (None, 32, 20, 32)        896       
                                                                 
 max_pooling2d_3 (MaxPooling  (None, 16, 10, 32)       0         
 2D)                                                             
                                                                 
 conv2d_4 (Conv2D)           (None, 16, 10, 64)        18496     
                                                                 
 max_pooling2d_4 (MaxPooling  (None, 8, 5, 64)         0         
 2D)                                                             
                                                                 
 conv2d_5 (Conv2D)           (None, 8, 5, 64)          36928     
                                                                 
 max_pooling2d_5 (MaxPooling  (None, 4, 2, 64)         0         
 2D)                                                             
                                                                 
 flatten_1 (Flatten)         (None, 512)               0         
                                                                 
 dense_2 (Dense)             (None, 256)               131328    
                                                                 
 dense_3 (Dense)             (None, 11)                2827      
                                                                 
=================================================================
Total params: 190,487
Trainable params: 190,481
Non-trainable params: 6
_________________________________________________________________
143
(143, 32, 20, 3)
(143, 11)
(114, 32, 20, 3)
(29, 32, 20, 3)
Epoch 1/100
 1/29 [>.............................] - ETA: 
…
20220403	143	95	0.0001369576930301264	0.0
20220403	143	96	0.0017081133555620909	6.248170620892779e-07
20220403	143	97	1.5783580238348804e-05	4.1106646975208605e-09
20220403	143	98	9.80825120677764e-07	0.0
20220403	143	99	6.26186520094052e-05	1.2496199133238406e-06
20220403	143	100	2.5401990569662303e-05	4.1106646975208605e-09
dig-s1
File Exists
dig-s2
a_output_actual/dig-s2
File Exists
Model: "sequential_2"
_________________________________________________________________
 Layer (type)                Output Shape              Param #   
=================================================================
 batch_normalization_2 (Batc  (None, 32, 20, 3)        12        
 hNormalization)                                                 
                                                                 
 conv2d_6 (Conv2D)           (None, 32, 20, 32)        896       
                                                                 
 max_pooling2d_6 (MaxPooling  (None, 16, 10, 32)       0         
 2D)                                                             
                                                                 
 conv2d_7 (Conv2D)           (None, 16, 10, 32)        9248      
                                                                 
 max_pooling2d_7 (MaxPooling  (None, 8, 5, 32)         0         
 2D)                                                             
                                                                 
 conv2d_8 (Conv2D)           (None, 8, 5, 32)          9248      
                                                                 
 max_pooling2d_8 (MaxPooling  (None, 4, 2, 32)         0         
 2D)                                                             
                                                                 
 flatten_2 (Flatten)         (None, 256)               0         
                                                                 
 dense_4 (Dense)             (None, 256)               65792     
                                                                 
 dense_5 (Dense)             (None, 11)                2827      
                                                                 
=================================================================
Total params: 88,023
Trainable params: 88,017
Non-trainable params: 6
_________________________________________________________________
143
(143, 32, 20, 3)
(143, 11)
(114, 32, 20, 3)
(29, 32, 20, 3)
Epoch 1/100
 1/29 [>.............................] - ETA: 10
…
20220403	143	96	3.1370547048936714e-07	0.3219224214553833
20220403	143	97	3.4410220450808993e-06	1.278393483516993e-06
20220403	143	98	6.985101776990632e-07	2.178646383299565e-07
20220403	143	99	1.5733636246295646e-05	0.0004801868926733732
20220403	143	100	6.4619225668138824e-06	8.632387960005872e-08
dig-s2
File Exists
dig-s3
a_output_actual/dig-s3
File Exists
Model: "sequential_3"
_________________________________________________________________
 Layer (type)                Output Shape              Param #   
=================================================================
 batch_normalization_3 (Batc  (None, 32, 20, 3)        12        
 hNormalization)                                                 
                                                                 
 conv2d_9 (Conv2D)           (None, 32, 20, 32)        896       
                                                                 
 max_pooling2d_9 (MaxPooling  (None, 16, 10, 32)       0         
 2D)                                                             
                                                                 
 conv2d_10 (Conv2D)          (None, 16, 10, 32)        9248      
                                                                 
 max_pooling2d_10 (MaxPoolin  (None, 8, 5, 32)         0         
 g2D)                                                            
                                                                 
 conv2d_11 (Conv2D)          (None, 8, 5, 32)          9248      
                                                                 
 max_pooling2d_11 (MaxPoolin  (None, 4, 2, 32)         0         
 g2D)                                                            
                                                                 
 flatten_3 (Flatten)         (None, 256)               0         
                                                                 
 dense_6 (Dense)             (None, 128)               32896     
                                                                 
 dense_7 (Dense)             (None, 11)                1419      
                                                                 
=================================================================
Total params: 53,719
Trainable params: 53,713
Non-trainable params: 6
_________________________________________________________________
143
(143, 32, 20, 3)
(143, 11)
(114, 32, 20, 3)
(29, 32, 20, 3)
Epoch 1/100
 1/29 [>.............................] - ETA: 10
…
